…
INFO:{'net': 'MLPMixer', 'ds': 'ir', 'device': 'cuda:0', 'train': True, 'test_checkpoint': 'checkpoints/ir/MLPMixer/2025-07-21_14_37/99_f1_5500.pth', 'seed': 2024, 'n_mixer': '2', 'depth': '1', 'use_mixer': '1', 'use_se': '1', 'use_res': True, 'epoch': '600', 'lr': '2e-3'}
INFO:{'net': 'MLPMixer', 'ds': 'ir', 'device': 'cuda:0', 'train': True, 'test_checkpoint': 'checkpoints/ir/MLPMixer/2025-07-21_14_37/99_f1_5500.pth', 'seed': 2024, 'n_mixer': '2', 'depth': '1', 'use_mixer': '1', 'use_se': '1', 'use_res': True, 'epoch': '600', 'lr': '2e-3'}
INFO:{'net': 'MLPMixer', 'ds': 'ir', 'device': 'cuda:0', 'train': True, 'test_checkpoint': 'checkpoints/ir/MLPMixer/2025-07-21_14_37/99_f1_5500.pth', 'seed': 2024, 'n_mixer': '2', 'depth': '1', 'use_mixer': '1', 'use_se': '1', 'use_res': True, 'epoch': '600', 'lr': '2e-3'}
INFO:ResNet(
  (spec_emb): Sequential(
    (0): Conv1d(1, 256, kernel_size=(16,), stride=(16,))
    (1): BatchNorm1d(256, eps=1e-05, momentum=0.1, affine=True, track_running_stats=True)
    (2): GELU(approximate='none')
    (3): Dropout(p=0.2, inplace=False)
  )
  (encoder): Sequential(
    (0): Sequential(
      (0): ResidualBlock(
        (conv1): Conv1d(256, 1024, kernel_size=(5,), stride=(1,), padding=(2,), bias=False)
        (bn1): BatchNorm1d(1024, eps=1e-05, momentum=0.1, affine=True, track_running_stats=True)
        (conv2): Conv1d(1024, 1024, kernel_size=(5,), stride=(1,), padding=(2,), bias=False)
        (bn2): BatchNorm1d(1024, eps=1e-05, momentum=0.1, affine=True, track_running_stats=True)
        (se): SE_block(
          (fc1): Conv(
            (conv): Conv1d(1024, 256, kernel_size=(1,), stride=(1,), bias=False)
            (bn): BatchNorm1d(256, eps=1e-05, momentum=0.1, affine=True, track_running_stats=True)
            (act): LeakyReLU(negative_slope=0.01)
          )
          (fc2): Conv(
            (conv): Conv1d(256, 1024, kernel_size=(1,), stride=(1,), bias=False)
            (bn): BatchNorm1d(1024, eps=1e-05, momentum=0.1, affine=True, track_running_stats=True)
            (act): LeakyReLU(negative_slope=0.01)
          )
          (sigmoid): Sigmoid()
        )
        (shortcut): Sequential(
          (0): Conv1d(256, 1024, kernel_size=(1,), stride=(1,), bias=False)
          (1): BatchNorm1d(1024, eps=1e-05, momentum=0.1, affine=True, track_running_stats=True)
        )
      )
    )
  )
  (mlpmixer): MLPMixer1D(
    (channel_linear): Conv1d(1024, 1024, kernel_size=(1,), stride=(1,))
    (token_mixers): ModuleList(
      (0-1): 2 x Sequential(
        (0): Linear(in_features=1024, out_features=768, bias=True)
        (1): GELU(approximate='none')
        (2): Dropout(p=0.0, inplace=False)
        (3): Linear(in_features=768, out_features=1024, bias=True)
        (4): Dropout(p=0.0, inplace=False)
      )
    )
    (channel_mixers): ModuleList(
      (0-1): 2 x Sequential(
        (0): Linear(in_features=16, out_features=768, bias=True)
        (1): GELU(approximate='none')
        (2): Dropout(p=0.0, inplace=False)
        (3): Linear(in_features=768, out_features=16, bias=True)
        (4): Dropout(p=0.0, inplace=False)
      )
    )
    (token_norm): LayerNorm((1024,), eps=1e-05, elementwise_affine=True)
    (channel_norm): LayerNorm((16,), eps=1e-05, elementwise_affine=True)
  )
  (head): Linear(in_features=1024, out_features=37, bias=True)
)
INFO:ResNet(
  (spec_emb): Sequential(
    (0): Conv1d(1, 256, kernel_size=(16,), stride=(16,))
    (1): BatchNorm1d(256, eps=1e-05, momentum=0.1, affine=True, track_running_stats=True)
    (2): GELU(approximate='none')
    (3): Dropout(p=0.2, inplace=False)
  )
  (encoder): Sequential(
    (0): Sequential(
      (0): ResidualBlock(
        (conv1): Conv1d(256, 1024, kernel_size=(5,), stride=(1,), padding=(2,), bias=False)
        (bn1): BatchNorm1d(1024, eps=1e-05, momentum=0.1, affine=True, track_running_stats=True)
        (conv2): Conv1d(1024, 1024, kernel_size=(5,), stride=(1,), padding=(2,), bias=False)
        (bn2): BatchNorm1d(1024, eps=1e-05, momentum=0.1, affine=True, track_running_stats=True)
        (se): SE_block(
          (fc1): Conv(
            (conv): Conv1d(1024, 256, kernel_size=(1,), stride=(1,), bias=False)
            (bn): BatchNorm1d(256, eps=1e-05, momentum=0.1, affine=True, track_running_stats=True)
            (act): LeakyReLU(negative_slope=0.01)
          )
          (fc2): Conv(
            (conv): Conv1d(256, 1024, kernel_size=(1,), stride=(1,), bias=False)
            (bn): BatchNorm1d(1024, eps=1e-05, momentum=0.1, affine=True, track_running_stats=True)
            (act): LeakyReLU(negative_slope=0.01)
          )
          (sigmoid): Sigmoid()
        )
        (shortcut): Sequential(
          (0): Conv1d(256, 1024, kernel_size=(1,), stride=(1,), bias=False)
          (1): BatchNorm1d(1024, eps=1e-05, momentum=0.1, affine=True, track_running_stats=True)
        )
      )
    )
  )
  (mlpmixer): MLPMixer1D(
    (channel_linear): Conv1d(1024, 1024, kernel_size=(1,), stride=(1,))
    (token_mixers): ModuleList(
      (0-1): 2 x Sequential(
        (0): Linear(in_features=1024, out_features=768, bias=True)
        (1): GELU(approximate='none')
        (2): Dropout(p=0.0, inplace=False)
        (3): Linear(in_features=768, out_features=1024, bias=True)
        (4): Dropout(p=0.0, inplace=False)
      )
    )
    (channel_mixers): ModuleList(
      (0-1): 2 x Sequential(
        (0): Linear(in_features=16, out_features=768, bias=True)
        (1): GELU(approximate='none')
        (2): Dropout(p=0.0, inplace=False)
        (3): Linear(in_features=768, out_features=16, bias=True)
        (4): Dropout(p=0.0, inplace=False)
      )
    )
    (token_norm): LayerNorm((1024,), eps=1e-05, elementwise_affine=True)
    (channel_norm): LayerNorm((16,), eps=1e-05, elementwise_affine=True)
  )
  (head): Linear(in_features=1024, out_features=37, bias=True)
)
INFO:ResNet(
  (spec_emb): Sequential(
    (0): Conv1d(1, 256, kernel_size=(16,), stride=(16,))
    (1): BatchNorm1d(256, eps=1e-05, momentum=0.1, affine=True, track_running_stats=True)
    (2): GELU(approximate='none')
    (3): Dropout(p=0.2, inplace=False)
  )
  (encoder): Sequential(
    (0): Sequential(
      (0): ResidualBlock(
        (conv1): Conv1d(256, 1024, kernel_size=(5,), stride=(1,), padding=(2,), bias=False)
        (bn1): BatchNorm1d(1024, eps=1e-05, momentum=0.1, affine=True, track_running_stats=True)
        (conv2): Conv1d(1024, 1024, kernel_size=(5,), stride=(1,), padding=(2,), bias=False)
        (bn2): BatchNorm1d(1024, eps=1e-05, momentum=0.1, affine=True, track_running_stats=True)
        (se): SE_block(
          (fc1): Conv(
            (conv): Conv1d(1024, 256, kernel_size=(1,), stride=(1,), bias=False)
            (bn): BatchNorm1d(256, eps=1e-05, momentum=0.1, affine=True, track_running_stats=True)
            (act): LeakyReLU(negative_slope=0.01)
          )
          (fc2): Conv(
            (conv): Conv1d(256, 1024, kernel_size=(1,), stride=(1,), bias=False)
            (bn): BatchNorm1d(1024, eps=1e-05, momentum=0.1, affine=True, track_running_stats=True)
            (act): LeakyReLU(negative_slope=0.01)
          )
          (sigmoid): Sigmoid()
        )
        (shortcut): Sequential(
          (0): Conv1d(256, 1024, kernel_size=(1,), stride=(1,), bias=False)
          (1): BatchNorm1d(1024, eps=1e-05, momentum=0.1, affine=True, track_running_stats=True)
        )
      )
    )
  )
  (mlpmixer): MLPMixer1D(
    (channel_linear): Conv1d(1024, 1024, kernel_size=(1,), stride=(1,))
    (token_mixers): ModuleList(
      (0-1): 2 x Sequential(
        (0): Linear(in_features=1024, out_features=768, bias=True)
        (1): GELU(approximate='none')
        (2): Dropout(p=0.0, inplace=False)
        (3): Linear(in_features=768, out_features=1024, bias=True)
        (4): Dropout(p=0.0, inplace=False)
      )
    )
    (channel_mixers): ModuleList(
      (0-1): 2 x Sequential(
        (0): Linear(in_features=16, out_features=768, bias=True)
        (1): GELU(approximate='none')
        (2): Dropout(p=0.0, inplace=False)
        (3): Linear(in_features=768, out_features=16, bias=True)
        (4): Dropout(p=0.0, inplace=False)
      )
    )
    (token_norm): LayerNorm((1024,), eps=1e-05, elementwise_affine=True)
    (channel_norm): LayerNorm((16,), eps=1e-05, elementwise_affine=True)
  )
  (head): Linear(in_features=1024, out_features=37, bias=True)
)
INFO:ResNet(
  (spec_emb): Sequential(
    (0): Conv1d(1, 256, kernel_size=(16,), stride=(16,))
    (1): BatchNorm1d(256, eps=1e-05, momentum=0.1, affine=True, track_running_stats=True)
    (2): GELU(approximate='none')
    (3): Dropout(p=0.2, inplace=False)
  )
  (encoder): Sequential(
    (0): Sequential(
      (0): ResidualBlock(
        (conv1): Conv1d(256, 1024, kernel_size=(5,), stride=(1,), padding=(2,), bias=False)
        (bn1): BatchNorm1d(1024, eps=1e-05, momentum=0.1, affine=True, track_running_stats=True)
        (conv2): Conv1d(1024, 1024, kernel_size=(5,), stride=(1,), padding=(2,), bias=False)
        (bn2): BatchNorm1d(1024, eps=1e-05, momentum=0.1, affine=True, track_running_stats=True)
        (se): SE_block(
          (fc1): Conv(
            (conv): Conv1d(1024, 256, kernel_size=(1,), stride=(1,), bias=False)
            (bn): BatchNorm1d(256, eps=1e-05, momentum=0.1, affine=True, track_running_stats=True)
            (act): LeakyReLU(negative_slope=0.01)
          )
          (fc2): Conv(
            (conv): Conv1d(256, 1024, kernel_size=(1,), stride=(1,), bias=False)
            (bn): BatchNorm1d(1024, eps=1e-05, momentum=0.1, affine=True, track_running_stats=True)
            (act): LeakyReLU(negative_slope=0.01)
          )
          (sigmoid): Sigmoid()
        )
        (shortcut): Sequential(
          (0): Conv1d(256, 1024, kernel_size=(1,), stride=(1,), bias=False)
          (1): BatchNorm1d(1024, eps=1e-05, momentum=0.1, affine=True, track_running_stats=True)
        )
      )
    )
  )
  (mlpmixer): MLPMixer1D(
    (channel_linear): Conv1d(1024, 1024, kernel_size=(1,), stride=(1,))
    (token_mixers): ModuleList(
      (0-1): 2 x Sequential(
        (0): Linear(in_features=1024, out_features=768, bias=True)
        (1): GELU(approximate='none')
        (2): Dropout(p=0.0, inplace=False)
        (3): Linear(in_features=768, out_features=1024, bias=True)
        (4): Dropout(p=0.0, inplace=False)
      )
    )
    (channel_mixers): ModuleList(
      (0-1): 2 x Sequential(
        (0): Linear(in_features=16, out_features=768, bias=True)
        (1): GELU(approximate='none')
        (2): Dropout(p=0.0, inplace=False)
        (3): Linear(in_features=768, out_features=16, bias=True)
        (4): Dropout(p=0.0, inplace=False)
      )
    )
    (token_norm): LayerNorm((1024,), eps=1e-05, elementwise_affine=True)
    (channel_norm): LayerNorm((16,), eps=1e-05, elementwise_affine=True)
  )
  (head): Linear(in_features=1024, out_features=37, bias=True)
)
INFO:Epoch  0, train loss:0.106564
INFO:Epoch  0, train loss:0.106564
INFO:Epoch  0, train loss:0.106564
INFO:Epoch  0, train loss:0.106564
INFO:Epoch  0, valid loss:0.081106
INFO:Epoch  0, valid loss:0.081106
INFO:Epoch  0, valid loss:0.081106
INFO:Epoch  0, valid loss:0.081106
INFO:Epoch  1, train loss:0.072008
INFO:Epoch  1, train loss:0.072008
INFO:Epoch  1, train loss:0.072008
…
